server/src/dataset/GNN/gnn_model.pth (torch, 209816 bytes, 8 tensors)

conv1.att_src f4 [1, 4, 32]
-0.08904614 -0.140033 0.39341488 0.57693464 0.10805481 -0.47750813 0.44350928 0.15413287
-0.49182793 -0.1363988 0.6548336 -0.30436438 0.13179797 -0.10544907 -0.24727839 -0.046854276
-0.13456516 0.6366645 -0.43662342 -0.58777153 0.5579123 0.32988143 -0.22446236 0.06742571
-0.4532099 0.22266343 -0.3512553 -0.4639419 0.3202402 0.5801421 0.11684941 0.5109425
0.5417488 0.06385527 0.101053976 0.27133325 -0.270943 0.35601687 0.4291678 0.10852772
0.07219646 0.6323689 -0.36355948 -0.37112656 -0.10770481 0.4545025 -0.75041986 0.31415397
-0.477449 -0.09905677 -0.39538455 0.10775994 -0.22160715 0.47006696 -0.059899952 0.56412077
-0.669742 0.17740726 0.06934943 -0.056951188 -0.24362056 0.19598301 -0.14959757 -0.5793558
-0.28737563 0.24946328 -0.32611653 -0.40613228 -0.28027597 -0.44174013 -0.14949682 0.3788074
0.44849968 0.2875164 0.2468025 -0.38181248 -0.022751445 0.2938734 0.25883162 -0.30625686
0.11858439 -0.27867216 0.3906289 -0.2432626 -0.2742504 -0.12367277 0.17500578 -0.28180924
-0.18111362 -0.29284108 -0.38398793 0.1684707 0.37809736 0.22674282 -0.04969038 -0.05759715
0.011693489 -0.29004833 0.10245234 -0.2354413 -0.2988714 0.19122903 0.059776604 0.39377987
-0.1637695 0.38022363 -0.019636113 -0.25419024 0.028566863 -0.33721632 -0.14177218 0.48278648
-0.33002302 -0.5667706 0.60538346 0.37358156 0.1538234 -0.3955693 0.38340056 0.35174423
-0.6850967 -0.40264615 0.35517144 0.46827656 -0.07024251 -0.32184818 -0.19141163 -0.46265227
00000000: d35d b6bd d064 0fbe ad6d c93e fdb1 133f
00000010: d74b dd3d f27b f4be a613 e33e 02d5 1d3e
00000020: dfd0 fbbe 21ac 0bbe 2da3 273f a6d5 9bbe
00000030: 0cf6 063e aff5 d7bd 8c36 7dbe 45ea 3fbd
00000040: 73cb 09be 72fc 223f 1b8d dfbe 3278 16bf
00000050: 57d3 0e3f 38e6 a83e 76d9 65be 7e16 8a3d
00000060: 210b e8be e201 643e bcd7 b3be cb89 edbe
00000070: 86f6 a33e 3184 143f be4e ef3d 21cd 023f
00000080: 0db0 0a3f 8dc6 823d 63f5 ce3d 31ec 8a3e
00000090: 0ab9 8abe d847 b63e e2bb db3e c843 de3d
000000a0: bddb 933d eee2 213f 7824 babe 4d04 bebe
000000b0: 5794 dcbd 8db4 e83e 841b 40bf cad8 a03e
000000c0: 3274 f4be 47de cabd d86f cabe 3eb1 dc3d
000000d0: fcec 62be 9eac f03e a759 75bd 386a 103f
000000e0: 3674 2bbf 40aa 353e 1307 8e3d a645 69bd
000000f0: ab77 79be c5af 483e 1b30 19be a950 14bf
00000100: e622 93be 4d73 7f3e bff8 a6be 92f0 cfbe
00000110: 5580 8fbe c32b e2be b215 19be 0bf3 c13e
00000120: c0a1 e53e 5935 933e cbb9 7c3e ed7c c3be
00000130: 3d61 babc 9376 963e 9485 843e b3cd 9cbe
00000140: 5fdc f23d 1eae 8ebe 8300 c83e d519 79be
00000150: 8c6a 8cbe 2648 fdbd b734 333e 4d49 90be
00000160: d975 39be 44ef 95be 119a c4be 9583 2c3e
00000170: fa95 c13e 452f 683e 2488 4bbd fdea 6bbd
00000180: 0c96 3f3c 3781 94be 88d2 d13d 8617 71be
00000190: ac05 99be 8bd1 433e 50d8 743d 849d c93e
000001a0: 31b3 27be acac c23e eadb a0bc 3925 82be
000001b0: 0e05 ea3c 9ea7 acbe ba2c 11be ca2f f73e
000001c0: c7f8 a8be e117 11bf 69fa 1a3f 1546 bf3e
000001d0: e283 1d3e 0f88 cabe 144d c43e d217 b43e
000001e0: 7f62 2fbf a327 cebe 08d9 b53e f2c1 ef3e
000001f0: 4edb 8fbd 49c9 a4be 6901 44be c2e0 ecbe

conv1.att_dst f4 [1, 4, 32]
0.3092395 -0.064676546 -0.09944106 0.08220901 0.09581503 -0.24295612 -0.099384286 -0.13854453
-0.18524411 -0.27160844 0.17309448 -0.42010835 0.50116086 -0.26691496 -0.09878331 0.15218267
0.30997193 -0.015763545 -0.3865692 -0.16655868 -0.058519248 0.03614029 -0.13728198 0.31440532
-0.08553463 0.18219016 -0.36467367 -0.07775446 0.3435062 -0.12460106 0.4289895 0.27888283
0.30610448 0.2026825 -0.27572498 -0.17324303 -0.23238331 -0.5386353 -0.022656042 -0.047845185
-0.20063682 -0.33873707 -0.5223409 -0.18754455 0.041203935 0.2031266 -0.023890756 0.59041846
-0.62738496 0.53589714 -0.38296196 0.15748891 -0.5386926 -0.32929012 0.35134855 0.20165859
-0.2996689 -0.48813272 -0.12887447 -0.19052137 0.15950924 -0.31366447 0.5485132 0.45985165
-0.26988652 0.33193895 -0.1754363 0.13031724 0.16578045 -0.056600854 0.34259248 0.10122867
0.016138488 0.41714248 0.16608958 -0.2532627 -0.26550025 0.0984193 0.5185124 -0.026289955
-0.24712431 0.19055778 0.16842629 -0.0346617 -0.03510805 0.3074749 -0.26200283 0.27172062
0.10324791 -0.21348353 0.13206556 0.05790373 -0.091118634 0.24658874 0.14801528 0.11557754
0.08408517 0.37156367 0.17114253 0.044581763 0.6016251 0.37625402 -0.2421701 0.35983095
-0.10238539 -0.4810316 0.2315848 0.19718768 0.27106804 -0.20336336 0.23231053 -0.49690107
-0.4979332 0.020399356 0.16005754 0.022526795 -0.17459956 -0.012530303 -0.48167357 -0.21903425
-0.3439961 -0.26425317 0.2900332 0.336867 -0.21662547 0.2099801 -0.05563421 0.06551235
00000000: a454 9e3e 2375 84bd c1a7 cbbd 335d a83d
00000010: ac3a c43d 7dc9 78be fd89 cbbd 9ede 0dbe
00000020: a2b0 3dbe 4310 8bbe ae3f 313e 7118 d7be
00000030: 144c 003f 14a9 88be e74e cabd c6d5 1b3e
00000040: a4b4 9e3e 8d22 81bc 66ec c5be 5c8e 2abe
00000050: e1b1 6fbd d707 143d a693 0cbe bcf9 a03e
00000060: c82c afbd 0f90 3a3e 82b6 babe bb3d 9fbd
00000070: 0be0 af3e d72e ffbd 83a4 db3e bbc9 8e3e
00000080: bab9 9c3e 008c 4f3e d32b 8dbe 9f66 31be
00000090: e4f5 6dbe 01e4 09bf 2a99 b9bc 50f9 43bd
000000a0: bd73 4dbe f26e adbe 22b8 05bf ae0b 40be
000000b0: 75c5 283d 6b00 503e 8cb6 c3bc aa25 173f
000000c0: 4d9c 20bf 8e30 093f 9713 c4be c644 213e
000000d0: c2e7 09bf b798 a8be f5e3 b33e 977f 4e3e
000000e0: 346e 99be 88ec f9be abf7 03be 0918 43be
000000f0: 6456 233e a198 a0be 5c6b 0c3f ad71 eb3e
00000100: 912e 8abe e7f3 a93e 93a5 33be e271 053e
00000110: 5ac2 293e 4cd6 67bd 4868 af3e fa50 cf3d
00000120: dd34 843c b393 d53e 6313 2a3e a6ab 81be
00000130: a6ef 87be 0f90 c93d 3bbd 043f 085e d7bc
00000140: 280e 7dbe 9421 433e f177 2c3e 6df9 0dbd
00000150: 75cd 0fbd 5a6d 9d3e 3c25 86be f71e 8b3e
00000160: a473 d33d 6d9b 5abe 323c 073e 762c 6d3d
00000170: 689c babd c281 7c3e 5191 173e ebb3 ec3d
00000180: d834 ac3d 983d be3e fd3f 2f3e 5e9b 363d
00000190: 1a04 1a3f 5ea4 c03e 70fb 77be c33b b83e
000001a0: 6eaf d1bd c649 f6be 9124 6d3e 91eb 493e
000001b0: 6ec9 8a3e 7c3e 50be d0e2 6d3e d169 febe
000001c0: 1af1 febe 8d1c a73c 20e6 233e 1d8a b83c
000001d0: 3aca 32be e64b 4dbc eb9d f6be 844a 60be
000001e0: 4220 b0be 314c 87be 3b7f 943e d579 ac3e
000001f0: 11d3 5dbe 0605 573e b3e0 63bd 572b 863d

conv1.bias f4 [128]
0.08576111 0.08215496 0.05636387 0.023195175 0.04411403 0.005868162 0.03923591 0.01733483
-0.029510258 -0.006701265 0.035603356 -0.04086412 0.034415238 0.088325374 0.07233991 0.08794556
0.117445804 0.028382074 -0.0041240193 -0.010451326 -0.0001513683 0.022990491 0.038659662 0.054084547
-0.034026828 0.044762943 -0.012069622 0.14612857 0.047261104 0.055459294 0.03407803 0.0826815
0.067764685 0.052358437 0.020758837 0.039427243 0.06632038 0.03535999 0.049203023 0.06748826
0.023201583 0.012948255 -0.02778756 0.11062744 0.10414948 0.05003134 0.00684109 0.07929421
0.07003781 0.076563045 0.0042714938 0.052798867 0.04447316 0.034049988 0.070266075 0.07635422
0.1507769 0.06773394 0.07528301 0.027919604 0.14351913 0.031409506 0.09769751 -0.008002409
0.059498876 0.054458234 -0.011612372 -0.034208205 0.070959665 0.078365184 0.050277803 0.068317994
0.06668975 0.041555215 0.052866958 -0.014860353 0.06667145 0.055484496 0.030062197 -0.0073553603
0.07006197 0.07283581 0.0846511 0.13221252 0.09226346 0.055468116 0.031431053 0.07754707
0.100394145 0.0020290345 -0.031884234 0.05593347 0.053292148 0.042485796 0.048694137 0.0684627
0.046774156 -0.0370743 0.06601164 -0.027952047 0.05902272 0.03856056 0.049474344 0.05508666
0.055584077 0.14625031 0.12768304 0.11794453 -0.011643159 0.020428114 0.060521908 -0.06403496
0.17199208 0.0699263 0.07282141 0.06644328 -0.024906995 0.05071207 0.021732757 0.033963986
0.0541627 0.09113388 0.07323865 0.032551147 0.041185252 0.025470413 0.09690875 -0.00836218
00000000: 85a3 af3d dc40 a83d cddd 663d cf03 be3c
00000010: eab0 343d b649 c03b d5b5 203d c601 8e3c
00000020: 7fbf f1bc 4996 dbbb d3d4 113d 2361 27bd
00000030: fef6 0c3d efe3 b43d f226 943d cd1c b43d
00000040: 6d87 f03d 8681 e83c c822 87bb 0a3c 2bbc
00000050: 9eb8 1eb9 8e56 bc3c 9859 1e3d c287 5d3d
00000060: b75f 0bbd 5959 373d aabf 45bc baa2 153e
00000070: dc94 413d 4929 633d 6895 0b3d eb54 a93d
00000080: 36c8 8a3d cd75 563d 700e aa3c 767e 213d
00000090: fbd2 873d a3d5 103d 1c89 493d 4937 8a3d
000000a0: 3f11 be3c eb24 543c bda2 e3bc a490 e23d
000000b0: 534c d53d aaed 4c3d 392b e03b 0165 a23d
000000c0: fc6f 8f3d 16cd 9c3d e3f7 8b3b a043 583d
000000d0: 7d29 363d 0078 0b3d a9e7 8f3d 9a5f 9c3d
000000e0: 4265 1a3e 18b8 8a3d fb2d 9a3d a7b7 e43c
000000f0: aef6 123e 41a7 003d a215 c83d 891c 03bc
00000100: 18b5 733d 990f 5f3d d141 3ebc e71d 0cbd
00000110: 4d53 913d ed7d a03d 19f0 4d3d 4eea 8b3d
00000120: a394 883d cd35 2a3d 068b 583d d778 73bc
00000130: 0b8b 883d b643 633d ff44 f63c 3c05 f1bb
00000140: a67c 8f3d f12a 953d 8e5d ad3d b862 073e
00000150: a0f4 bc3d 8932 633d d9bd 003d 00d1 9e3d
00000160: 729b cd3d 8df9 043b 0b99 02bd 7f1a 653d
00000170: de48 5a3d 9605 2e3d 8173 473d 2c36 8c3d
00000180: 4296 3f3d 39db 17bd 1c31 873d b1fb e4bc
00000190: cfc1 713d aef1 1d3d 9ca5 4a3d 8da2 613d
000001a0: 21ac 633d a4c2 153e 58bf 023e e78c f13d
000001b0: f3c2 3ebc dc58 a73c d2e5 773d c324 83bd
000001c0: b11e 303e 8535 8f3d 6423 953d 6a13 883d
000001d0: c109 ccbc 76b7 4f3d e508 b23c d21d 0b3d
000001e0: b5d9 5d3d 66a4 ba3d 25fe 953d 5a54 053d
000001f0: deb1 283d 54a7 d03c 1878 c63d 8601 09bc

conv1.lin.weight f4 [128, 384]
-0.06276414 0.03365753 0.023048716 -0.120925166 0.17241678 -0.09074505 0.026924314 -0.08471156
0.13351792 -0.06698172 0.13355361 -0.11771076 0.051897567 0.0008378228 -0.0360758 -0.13540056
0.008435092 0.038500253 -0.011028333 -0.08583843 -0.046254154 0.15097688 -0.18660998 -0.03452966
0.068444625 0.15353967 0.025223576 0.0971977 -0.047185495 -0.101612695 -0.034523167 0.1643211
0.0009945278 -0.010184026 0.09732542 0.1708962 0.025700783 -0.02831998 0.11893193 0.13243452
-0.06601564 -0.10703032 0.1686986 -0.06497161 0.038923856 -0.112335786 0.010062663 -0.1026905
0.14362429 -0.079007 -0.060600106 -0.08329078 0.060576014 -0.031356875 0.07491292 0.019245239
0.028901022 -0.045429546 0.02880651 -0.11033584 -0.035870396 0.090604395 -0.22075853 0.07723593
-0.14764652 0.069369026 0.12902561 -0.14165552 -0.14435174 -0.13401684 0.12132307 -0.042414337
-0.15347554 0.07690013 -0.32027993 -0.009986178 0.01684877 -0.015381613 -0.02783491 -0.06710011
-0.07127699 0.04747586 -0.001923715 -0.04879598 0.043915544 0.07585875 -0.16419634 0.014572711
-0.0016870233 0.12925741 0.109855354 -0.015924416 0.049182035 0.023999289 0.02499711 0.0802926
-0.07708784 0.029085342 -0.030459624 -0.038790043 0.2104001 0.028032 0.014553082 0.026914176
0.07947989 -0.033144392 0.14203155 0.045940813 0.008341122 0.0049343742 -0.11605423 0.062911026
-0.069404915 0.02722295 0.17488283 -0.016679313 0.16401501 0.02896138 -0.18818086 -0.10173538
0.20043857 -0.13637467 -0.10459629 0.21724974 0.06659676 0.11868706 -0.15150188 -0.03370123
0.14119205 -0.05901864 0.16035187 0.13386104 -0.17608637 -0.04589604 -0.12815642 -0.09968729
-0.11223098 -0.15204535 -0.06628767 -0.06822738 -0.051384024 -0.03812273 0.14419973 -0.18462119
0.06453725 0.003977991 0.036990553 0.029186582 0.038246278 0.07192545 0.0427182 -0.08264894
-0.022940818 -0.11318392 0.15536487 -0.19466029 -0.10908872 0.2063593 -0.10929986 -0.0009476064
-0.18637343 0.25590357 -0.0333748 0.10570359 -0.016634436 -0.16961241 -0.117454626 -0.031825967
0.116601475 0.051787365 -0.019519512 0.17980628 0.18012853 -0.29284894 0.09793032 0.07597875
0.08705927 0.26663178 0.12431283 0.14544722 0.05682311 0.009395679 -0.086991586 0.18087979
0.10656065 -0.101672776 -0.07948326 0.20093216 0.053048395 -0.011175295 -0.14935149 0.14264105
-0.054634675 0.23187535 -0.03720148 -0.17076823 0.19384864 -0.22986302 0.08113148 -0.11531406
0.06663411 0.118085675 -0.1139248 0.08742479 0.049271543 -0.04490804 0.07475343 -0.050371945
0.023538783 0.10673783 0.11863177 0.12233584 -0.022845881 0.026800964 0.059438433 0.12930301
0.005560753 -0.10422943 -0.0022033548 0.0019831043 0.08434592 -0.006304438 0.04568657 0.029931575
0.051635895 -0.020283489 0.056139875 0.05837581 -0.11110556 -0.11297116 -0.15371275 0.16512355
0.102003984 0.06657133 -0.042206086 -0.07674066 0.15007354 -0.15073003 0.010011019 0.030380405
0.065218665 0.16301034 -0.16322961 -0.21607691 0.0011819995 -0.032988273 0.120573916 0.073240414
0.068660356 -0.15579653 -0.17707834 0.07564056 -0.043695133 -0.119043015 0.15729405 0.060038947
00000000: 7c8a 80bd 7adc 093d a9d0 bc3c 9da7 f7bd
00000010: 068e 303e 8ad8 b9bd 6190 dc3c 417d adbd
00000020: ecb8 083e b62d 89bd 47c2 083e 5712 f1bd
00000030: 8b92 543d 56a1 5b3a 38c4 13bd 72a6 0abe
00000040: 5733 0a3c 71b2 1d3d 2eb0 34bc 0fcc afbd
00000050: ff74 3dbd af99 1a3e b016 3fbe f96e 0dbd
00000060: b22c 8c3d 8139 1d3e aca1 ce3c 960f c73d
00000070: 9445 41bd 511a d0bd 2a68 0dbd ca43 283e
00000080: d15a 823a e7da 26bc 8d52 c73d 6aff 2e3e
00000090: 738a d23c 4dff e7bc 9592 f33d ea9c 073e
000000a0: 3533 87bd b632 dbbd 53bf 2c3e d60f 85bd
000000b0: 9f6e 1f3d 4e10 e6bd dedd 243c 664f d2bd
000000c0: 3f12 133e 6cce a1bd d137 78bd 5b94 aabd
000000d0: 8e1e 783d 1170 00bd f26b 993d 31a8 9d3c
000000e0: d6c1 ec3c 5514 3abd a1fb eb3c c2f7 e1bd
000000f0: d6ec 12bd cc8e b93d 860e 62be df2d 9e3d
00000100: a630 17be 5911 8e3d 4a1f 043e 250e 11be
00000110: f1d0 13be b63b 09be 3b78 f83d a8ba 2dbd
00000120: b128 1dbe d17d 9d3d bbfb a3be 119d 23bc
00000130: 6f06 8a3c 2903 7cbc 0a06 e4bc c86b 89bd
00000140: acf9 91bd 0c76 423d 2a25 fcba 4bde 47bd
00000150: c9e0 333d d55b 9b3d 1623 28be 61c2 6e3c
00000160: 1c1f ddba 0e5c 043e d8fb e03d ec73 82bc
00000170: 1a73 493d 289a c43c bdc6 cc3c 7270 a43d
00000180: 3be0 9dbd 6244 ee3c 7686 f9bc 4fe2 1ebd
00000190: 2073 573e 5da3 e53c 0d70 6e3c 1e7b dc3c
000001a0: 5ac6 a23d 6ac2 07bd b870 113e 6f2c 3c3d
000001b0: 34a9 083c 88b0 a13b d7ad edbd 7fd7 803d
000001c0: 2a24 8ebd aa02 df3c 7c14 333e 0ea3 88bc
000001d0: 8df3 273e 6a40 ed3c 7cb2 40be a45a d0bd
000001e0: c53f 4d3e cda5 0bbe 9436 d6bd b776 5e3e
000001f0: e263 883d 3412 f33d 4f23 1bbe 4d0a 0abd
00000200: a694 103e 88bd 71bd 4833 243e de12 093e
00000210: fc4f 34be 7cfd 3bbd 703b 03be da28 ccbd
00000220: 5bd9 e5bd c7b1 1bbe d4c1 87bd ccba 8bbd
00000230: 0e78 52bd 9426 1cbd 18a9 133e 560d 3dbe
00000240: 1b2c 843d cf59 823b 6883 173d b318 ef3c
00000250: 21a8 1c3d a64d 933d 47f9 2e3d d943 a9bd
00000260: 62ee bbbc f9cc e7bd f817 1f3e 0755 47be
00000270: e869 dfbd da4f 533e 9bd8 dfbd ca68 78ba
00000280: add8 3ebe cb05 833e 04b4 08bd 207b d83d
00000290: f144 88bc e0ae 2dbe 0d8c f0bd f25b 02bd
000002a0: c1cc ee3d fd1e 543d 62e7 9fbc 231f 383e
000002b0: 9d73 383e 4cf0 95be b18f c83d bf9a 9b3d
000002c0: 214c b23d f683 883e ba97 fe3d 1ef0 143e
000002d0: 59bf 683d 56f0 193c a528 b2bd 8d38 393e
000002e0: 783c da3d d139 d0bd 1fc8 a2bd 29c1 4d3e
000002f0: 4649 593d 9618 37bc 99ef 18be 7f10 123e
00000300: 9cc8 5fbd bb70 6d3e 9460 18bd dedd 2ebe
00000310: 4280 463e 3661 6bbe 4328 a63d c729 ecbd
00000320: 7777 883d e7d6 f13d 6851 e9bd c50b b33d
00000330: f5d0 493d 7ef1 37bd 5418 993d d052 4ebd
00000340: 68d4 c03c 5d99 da3d 37f5 f23d 368b fa3d
00000350: 4927 bbbc b28d db3c b775 733d 0268 043e
00000360: fa36 b63b 3d76 d5bd 2966 10bb f8f6 013b
00000370: 8ebd ac3d 7695 cebb d721 3b3d 1033 f53c
00000380: 2980 533d 8f29 a6bc edf2 653d 791b 6f3d
00000390: 508b e3bd 6c5d e7bd e066 1dbe 2616 293e
000003a0: 77e7 d03d 8d56 883d 4ae0 2cbd 352a 9dbd
000003b0: e1ac 193e f958 1abe 4205 243c 54e0 f83c
000003c0: 5d91 853d 2fec 263e aa25 27be 4443 5dbe
000003d0: 52ed 9a3a b61e 07bd 75ef f63d 12ff 953d
000003e0: cd9d 8c3d 2089 1fbe 0654 35be 70e9 9a3d
000003f0: abf9 32bd d3cc f3bd b111 213e 66eb 753d

conv2.att_src f4 [1, 1, 16]
0.07499068 -0.047500674 0.1461062 0.43928492 0.4690413 -0.33363608 0.09074257 0.39528775
0.34849906 0.32764268 0.27993947 0.46107712 0.18543755 0.18846089 0.08735323 -0.2359547
00000000: b794 993d 1190 42bd dd9c 153e f4e9 e03e
00000010: 2e26 f03e 59d2 aabe 3ed7 b93d 2863 ca3e
00000020: 786e b23e c8c0 a73e 3a54 8f3e 4d12 ec3e
00000030: 57e3 3d3e e4fb 403e 40e6 b23d 1c9e 71be

conv2.att_dst f4 [1, 1, 16]
0.25586683 -0.22777194 0.1373642 -0.615898 0.50601995 0.24616638 0.46546564 -0.55974907
-0.33955747 0.27854756 0.2079788 0.38796207 0.4586907 0.26532444 0.4708204 -0.42558014
00000000: fa00 833e 0c3d 69be 33a9 0c3e 7eab 1dbf
00000010: 868a 013f 0a13 7c3e 8351 ee3e b74b 0fbf
00000020: 7ada adbe c99d 8e3e 65f8 543e f7a2 c63e
00000030: 82d9 ea3e 9bd8 873e 5f0f f13e a4e5 d9be

conv2.bias f4 [16]
-0.015468048 -0.00057357806 0.03182069 0.003076193 0.010787546 0.027857162 0.0049561732 -0.0016933017
-0.032905225 0.022598725 0.029971367 -0.020240294 0.008063256 -0.038979147 0.04447698 0.0208214
00000000: b26d 7dbc 2c5c 16ba 6956 023d f499 493b
00000010: 3fbe 303c b434 e43c 6567 a23b c7f1 ddba
00000020: a1c7 06bd f620 b93c 8386 f53c f9ce a5bc
00000030: bf1b 043c 99a8 1fbd 7e2d 363d a491 aa3c

conv2.lin.weight f4 [16, 128]
0.007931291 0.1490763 -0.0318371 0.16099904 -0.23498175 -0.08325603 -0.17002916 0.082734026
-0.12992692 0.10821756 0.041129973 -0.0015597397 0.040040657 -0.2617557 -0.111372985 -0.21827114
-0.116875775 -0.2486474 0.114000835 0.106497414 0.21598227 -0.07718595 -0.104679115 0.14694668
0.07487105 0.020582378 0.09443595 0.19843102 0.018037133 -0.073061176 -0.089499824 -0.20438437
-0.016584191 0.16767682 0.18941431 -0.16618209 0.12719755 -0.25090462 -0.2500463 0.0466677
0.31111333 0.09296407 -0.04163475 0.06351001 0.16750899 0.048731014 -0.019795248 -0.09729205
0.23687863 0.25543734 0.08798124 -0.13859004 0.013228444 -0.113588214 -0.27984795 0.15029259
-0.2390053 0.15354176 0.09556298 -0.2551502 -0.32789406 -0.05637226 -0.05767227 0.23360215
-0.07536784 -0.15048409 -0.112007335 0.1253681 0.25787392 0.016332272 0.16742665 0.05552131
-0.085291594 -0.18101218 -0.05669278 -0.08563143 0.20015983 0.07343183 -0.26925898 -0.2331756
0.22388582 -0.105369665 0.1016036 0.1401584 -0.23000738 -0.25624856 0.101684056 -0.01064519
-0.2031411 -0.003725946 0.06747501 -0.14017028 -0.08417333 0.13634732 0.22530292 -0.21575515
-0.22733457 0.043878954 0.088373825 -0.13463385 0.15575552 -0.073008984 0.16291715 -0.006950532
-0.23882322 -0.08817068 0.011656954 0.20868939 -0.093984894 0.11038882 0.06321425 0.4599593
-0.009455252 0.14754899 -0.1613575 -0.2779524 0.09594776 0.021165809 -0.074737 -0.020433802
-0.010988575 0.16297762 -0.054634612 -0.21625671 0.1727735 -0.14555462 -0.025111452 -0.110357344
0.21868856 0.13307935 -0.077241905 0.24866186 -0.13033295 -0.06325255 0.14743818 0.23532367
-0.12766764 -0.08238019 -0.25970435 -0.1758563 0.19452538 0.17642468 0.1071179 -0.21963426
0.06785511 -0.22632788 0.10617065 0.1425283 0.21297227 0.114732146 0.15080242 -0.19390933
-0.058332898 0.23108819 0.07381872 -0.19945723 -0.017889647 0.10788387 -0.079779334 0.059983276
-0.11766475 0.055159006 0.17192289 0.029246144 0.16610649 0.13214263 -0.28731647 0.18105103
-0.004054982 -0.40357968 -0.14255235 0.164384 0.18797682 0.010947024 0.20067565 0.043648113
-0.011116912 0.21710227 -0.14370468 0.013275821 0.09538611 0.025833573 -0.19576581 -0.18375467
-0.53108525 0.20322718 0.0688518 0.12638535 -0.116914414 -0.019750882 -0.08718927 -0.005658132
-0.057272214 -0.17231804 -0.19683875 -0.07301474 -0.2578542 -0.29369596 0.15549627 0.0040042778
0.2993502 -0.09047088 0.0951085 -0.061549395 -0.07943478 -0.07030705 0.01588337 0.15372396
0.10458551 0.119241975 0.16666248 0.18429518 -0.17754002 0.18964212 0.08388208 -0.2450109
-0.14773667 0.19460507 -0.050488982 0.30974755 0.06776433 0.021120777 0.05970303 -0.1955359
-0.29751873 -0.14729272 -0.0993445 0.03808836 0.09506183 0.018147977 -0.061636165 -0.09004746
0.111834146 0.016074251 -0.13931973 0.0627967 -0.28690976 -0.13144043 0.009920014 0.13213244
0.23116605 0.02435401 0.033480674 -0.24789551 0.16901621 -0.093722396 -0.27189654 0.12205358
0.20368986 -0.048168007 0.21071038 -0.017110366 -0.17637292 0.040961962 0.08706313 0.11175608
00000000: 3ff2 013c 75a7 183e 9e67 02bd efdc 243e
00000010: 0e9f 70be 2382 aabd 201c 2ebe 7570 a93d
00000020: 900b 05be 2ba1 dd3d e777 283d 2e70 ccba
00000030: ac01 243d d804 86be 8517 e4bd 7882 5fbe
00000040: 915c efbd 6d9d 7ebe 4579 e93d 511b da3d
00000050: 752a 5d3e ab13 9ebd 0162 d6bd 3179 163e
00000060: fe55 993d 609c a83c a367 c13d 8031 4b3e
00000070: 9cc2 933c 19a1 95bd af4b b7bd 234a 51be
00000080: 92db 87bc 79b3 2b3e d3f5 413e a32b 2abe
00000090: 1340 023e 9276 80be 1206 80be a126 3f3d
000000a0: 3f4a 9f3e f263 be3d 3389 2abd 8911 823d
000000b0: 7a87 2b3e 2c9a 473d a529 a2bc 0e41 c7bd
000000c0: 5090 723e afc8 823e 822f b43d 8cea 0dbe
000000d0: 1ebc 583c f0a0 e8bd 3b48 8fbe 4de6 193e
000000e0: cebd 74be 0d3a 1d3e 86b6 c33d 0ca3 82be
000000f0: bbe1 a7be 99e6 66bd c239 6cbd 6735 6f3e
00000100: 745a 9abd 8018 1abe 1a64 e5bd 7f60 003e
00000110: 0d08 843e 42cb 853c e471 2b3e 506a 633d
00000120: 5cad aebd 425b 39be b036 68bd 885f afbd
00000130: b3f6 4c3e 6d63 963d 50dc 89be 96c5 6ebe
00000140: 5342 653e 0dcc d7bd 8c15 d03d af85 0f3e
00000150: 0e87 6bbe 0333 83be bb3f d03d 2a69 2ebc
00000160: 3804 50be 002f 74bb 5730 8a3d cc88 0fbe
00000170: 1163 acbd a29e 0b3e cfb5 663e ebee 5cbe
00000180: 65ca 68be 6bba 333d 56fd b43d 75dd 09be
00000190: 607e 1f3e bc85 95bd c1d3 263e 4ac1 e3bb
000001a0: 138e 74be d492 b4bd cffc 3e3c acb2 553e
000001b0: 277b c0bd 8913 e23d 7976 813d c97f eb3e
000001c0: 34ea 1abc 1517 173e e73a 25be c74f 8ebe
000001d0: 4280 c43d eb63 ad3c b60f 99bd ca64 a7bc
000001e0: 6d09 34bc 9be3 263e 8bc8 5fbd 6672 5dbe
000001f0: 89eb 303e 450c 15be 88b6 cdbc 0803 e2bd
00000200: e5ef 5f3e f445 083e 0131 9ebd 37a1 7e3e
00000210: 0076 05be 8e8a 81bd 09fa 163e b0f8 703e
00000220: 4ebb 02be f2b6 a8bd f8f7 84be ad13 34be
00000230: a931 473e aca8 343e a160 db3d cee7 60be
00000240: 9ff7 8a3d 7fc2 67be ff6f d93d f0f2 113e
00000250: 6715 5a3e b0f8 ea3d f36b 1a3e 2b90 46be
00000260: 7aee 6ebd 62a2 6c3e 452e 973d 843e 4cbe
00000270: 4f8d 92bc 38f2 dc3d 5963 a3bd 06b1 753d
00000280: 37fa f0bd 69ee 613d 8e0c 303e 9c95 ef3c
00000290: d217 2a3e 6650 073e 251b 93be 7165 393e
000002a0: a8df 84bb ffa1 cebe 3ef9 11be 4754 283e
000002b0: ff7c 403e 265b 333c eb7d 4d3e 5dc8 323d
000002c0: b523 36bc 0f50 5e3e 5227 13be d482 593c
000002d0: cb59 c33d eea0 d33c d576 48be 2f2a 3cbe
000002e0: 34f5 07bf c91a 503e 2c02 8d3d 296b 013e
000002f0: d370 efbd 9acc a1bc 4a90 b2bd da67 b9bb
00000300: 4596 6abd 2474 30be 1990 49be c188 95bd
00000310: 7705 84be 515f 96be 6a3a 1f3e 5136 833b
00000320: 6e44 993e cc48 b9bd 3fc8 c23d 381b 7cbd
00000330: b4ae a2bd 25fd 8fbd d71d 823c d069 1d3e
00000340: ee30 d63d 2335 f43d 92a9 2a3e e0b7 3c3e
00000350: 0dcd 35be 8b31 423e 5eca ab3d 23e4 7abe
00000360: 4848 17be 8d46 473e 89cd 4ebd 3b97 9e3e
00000370: 06c8 8a3d 7b05 ad3c 2a8b 743d 903a 48be
00000380: 6054 98be e7d3 16be 2175 cbbd 8a02 1c3d
00000390: c7af c23d 11ab 943c 3476 7cbd cd6a b8bd
000003a0: 4d09 e53d 26ae 833c d5a9 0ebe 8e9b 803d
000003b0: d6e5 92be 5298 06be 8e87 223c ba4d 073e
000003c0: cbb6 6c3e 1082 c73c 0823 093d 52d8 7dbe
000003d0: 9612 2d3e 87f1 bfbd 0636 8bbe 3af7 f93d
000003e0: 1394 503e d14b 45bd 76c4 573e 0a2b 8cbc
000003f0: 1a9b 34be bbc7 273d 284e b23d 5fe0 e43d
